…
TAG: week2

Week 3:
Goals:
- Write an autoencoder to improve the reconstruction error, pca will be the baseline

Written an autoencoder that can map 256x256 tensors to the following dimensions: 16, 25, 50, 100, 150, 200

Re-written the autoencoder to reduce the number of parameters by a factor of 4, now either the model has not enough capacity, either the stopping of the optimization is too early. The latter is much more probable as I only let it run for 3 epoch (the fitting take ~2min per epoch). The structure of the net is as follows:
BasicAutoEncoder(
  (transform_convs): Sequential(
    (0): Conv2d(1, 8, kernel_size=(4, 4), stride=(1, 1))									-> 8 x 253 x 253
    (1): ReLU()
    (2): Conv2d(8, 16, kernel_size=(6, 6), stride=(3, 3), padding=(1, 1))	-> 16 x 84 x 84
    (3): ReLU()
    (4): Conv2d(16, 16, kernel_size=(6, 6), stride=(2, 2))								-> 16 x 40 x 40
    (5): ReLU()
    (6): Conv2d(16, 16, kernel_size=(6, 6), stride=(2, 2))								-> 16 x 18 x 18
    (7): ReLU()
    (8): Conv2d(16, 8, kernel_size=(6, 6), stride=(1, 1))									-> 8 x 13 x 13
    (9): ReLU()
  )
  (to_lower_dim): Sequential(
    (0): Conv2d(8, 1, kernel_size=(7, 7), stride=(2, 2))									-> 1 x 4 x 4
    (1): ReLU()
  )
  (from_lower_dim): Sequential(
    (0): ConvTranspose2d(1, 8, kernel_size=(7, 7), stride=(2, 2))
    (1): ReLU()
  )
  (inv_transform_convs): Sequential(
    (0): ConvTranspose2d(8, 16, kernel_size=(6, 6), stride=(1, 1))
    (1): ReLU()
    (2): ConvTranspose2d(16, 16, kernel_size=(6, 6), stride=(2, 2))
    (3): ReLU()
    (4): ConvTranspose2d(16, 16, kernel_size=(6, 6), stride=(2, 2))
    (5): ReLU()
    (6): ConvTranspose2d(16, 8, kernel_size=(6, 6), stride=(3, 3), padding=(1, 1))
    (7): ReLU()
    (8): ConvTranspose2d(8, 1, kernel_size=(4, 4), stride=(1, 1))
  )
)

After five epochs (5min of grayscale 256x256, skipping 4 frames with five epochs -> 5min30 to fit and 2min to transform) the error is quite high: 40.39. One problem is that the frame are not at all extracted in random order but in consecutive which implies that the SGD's convergence rate should be much worse.

Added the randit VideoLoader's argument to make the iterator load frames in random order.
…
Implemented PCA using autoencoder structure. Far slower to create the model and the performance are worse (normal as PCA is mathematically perfect). After tuning the learning rate and the weight decay, fitting for 30 epochs gives an error of 17.8 (vs 7.45 for PCA). This took 4m43s to fit and 24s to transform (vs 36s and 12.5s for PCA). So for now this model is just worse in all aspect (except maybe that it can be fitted iteratively).

Next model is a one hidden layer NN for the encoder and decoder with 200 hidden dimension. This gives a slightly better result: 14.62 (same as before, hyper-parameters tuned ans 30 epochs) but take 2x more times per epoch.

Implemented convolutional AE with few layer and big filters. Good potential but slow to converge.
Model:
SpatialConvAE(
  (encoder_convs): Sequential(
    (0): Conv2d(1, 128, kernel_size=(26, 26), stride=(5, 5))
    (1): ReLU()
    (2): Conv2d(128, 128, kernel_size=(11, 11), stride=(3, 3))
    (3): ReLU()
    (4): Conv2d(128, 64, kernel_size=(6, 6), stride=(1, 1))
    (5): ReLU()
  )
  (encoder_lin): Linear(in_features=4096, out_features=50, bias=True)
  (decoder_lin): Linear(in_features=50, out_features=4096, bias=True)
  (decoder_convs): Sequential(
    (0): ConvTranspose2d(64, 128, kernel_size=(6, 6), stride=(1, 1))
    (1): ReLU()
    (2): ConvTranspose2d(128, 128, kernel_size=(11, 11), stride=(3, 3))
    (3): ReLU()
    (4): ConvTranspose2d(128, 1, kernel_size=(26, 26), stride=(5, 5))
  )
)
Using 30 epochs, fine tuned the hyperparameters:
	time to fit: 1:15:04
	time to transform: 3:46
	error: around 14 (exact loss not known, kernel died)

Switch to video that have a meaning: one recorded by the Jo's. The aim is to make a fresh comparison of all models and try to come with an autoencoder that compete with PCA.

Had to debug the video loader while switching the recording. The video loader is now faster (as fast as before including torch data types into the video loader).
…
